weights/OPTUNA_MLP_train_on_2016_epochs_160_lr_0.007342543094181967_MAPE_1.9511446356773376.pth (torch, 382023 bytes, 10 tensors)

hidden1.weight f4 [180, 384]
-0.038391206 -0.00055336766 -0.062753715 -0.0188612 -0.058929406 -0.044273566 -0.0781787 -0.05967842
-0.0389185 -0.0383574 -0.06808254 0.01415916 -0.09152565 -0.01560578 -0.0053232578 -0.038098507
-0.005140413 -0.047406 0.04373606 -0.036527444 -0.05494764 -0.017830877 -0.06321698 -0.030637844
0.025557224 -0.08496382 -0.016168771 -0.07253191 -0.03150019 -0.08026799 -0.035629224 -0.086768255
-0.011895664 -0.049065974 0.06109357 -0.0155594805 -0.014089059 -0.013149762 -0.07517105 -0.016606381
-0.016575618 -0.026825044 0.005113809 -0.0125844 -0.07896653 -0.05767699 -0.0007246724 -0.046715975
0.043333273 -0.048717134 -0.002438654 -0.0743702 -0.04255855 -0.062281765 -0.04687372 -0.02815873
0.017643332 -0.08225301 0.019462638 0.008697109 -0.04136916 -0.014111528 -0.0019822589 -0.08579307
0.0054836893 -0.08899773 -0.037103694 0.009772568 -0.015929364 -0.036620516 -0.011578321 0.002186108
-0.041195218 -0.08422019 -0.014681911 0.026452214 -0.07863403 -0.035656836 -0.07811624 -0.036032736
-0.003481638 -0.06963146 0.045924805 -0.047161657 -0.08788058 -0.012235297 -0.07433618 -0.01550705
0.019098371 -0.03162871 -0.024020636 0.008407113 -0.010915007 -0.030766485 -0.035964668 -0.0714483
-0.018480888 -0.08132946 0.0031170484 -0.016564349 -0.030943729 -0.06509239 -0.01674155 -0.05311428
-0.0013178008 -0.08143829 -0.01036583 -0.02957446 -0.03920293 0.007342119 -0.075336255 -0.020728035
-0.04123502 -0.04818902 -0.042819634 -0.05485154 -0.0059449556 -0.037638497 -0.06145936 -0.054340564
-0.04232772 -0.053120214 -0.0070961756 -0.03153177 -0.04784443 -0.02421799 -0.08043579 0.0029870952
-0.004939972 -0.06536712 0.010695688 0.030863106 -0.020085283 0.0116119115 -0.05356873 -0.005656736
-0.02655004 -0.07822748 0.009288418 -0.05610572 -0.03267185 -0.0057274504 -0.061523702 -0.024696738
-0.007787347 -0.09873389 -0.026367852 -0.064707674 -0.08012739 -0.06668264 0.0070547466 -0.0068789897
0.020009508 -0.061701417 0.04184372 0.008017792 -0.015254782 -0.052323405 0.009704382 0.000109469634
0.030910872 -0.087484725 0.057239432 -0.013883514 -0.039417826 -0.07003436 -0.04926275 -0.040873308
-0.0021264644 -0.04553419 -0.014745718 0.023896782 -0.001075093 -0.04840072 -0.04461975 -0.012869147
-0.015797662 -0.008046999 -0.011535194 -0.019465301 -0.022714255 -0.082958326 -0.024379475 -0.011677377
-0.011956272 -0.03308445 0.007839854 -0.008283487 -0.016308952 -0.023217317 -0.010816076 -0.067381226
-0.048426285 -0.022201942 0.04887213 0.015699668 -0.035158448 -0.013603696 -0.06790323 -0.04672549
-0.024429768 -0.05844129 0.08530976 -0.008589447 -0.028324816 -0.06181954 -0.009228225 -0.08080002
0.0031583118 -0.048827376 0.0716078 0.014592475 -0.01576456 -0.033175178 -0.040439423 0.0012377003
-0.044029254 -0.008318557 0.0811784 0.014740816 -0.08564561 -0.05152226 -0.07826782 0.0034199401
-0.032028977 -0.039143335 0.065993115 0.017068978 -0.04883688 -0.0069996864 -0.0018388092 -0.058964584
-0.019451458 -0.04238596 -0.021029452 -0.019218003 -0.08300196 -0.05480463 -0.06587285 -0.046393402
-0.041071203 -0.05114769 0.048421983 -0.02977334 -0.08703055 -0.01690179 -0.059711006 -0.0074202786
-0.054396443 -0.06241166 -0.054605372 -0.017709078 0.0036471 -0.005020517 -0.07786876 -0.06889862
00000000: 1940 1dbd e00f 11ba 0585 80bd ce82 9abc
00000010: f65f 71bd 3358 35bd 271c a0bd 5c71 74bd
00000020: 0169 1fbd a61c 1dbd dc6e 8bbd d2fb 673c
00000030: cd71 bbbd 63af 7fbc b96e aebb 2e0d 1cbd
00000040: e970 a8bb cb2c 42bd 9524 333d cd9d 15bd
00000050: c710 61bd 0f12 92bc e777 81bd 37fc fabc
00000060: 625d d13c 8301 aebd 5f74 84bc 9c8b 94bd
00000070: 5806 01bd 8b63 a4bd f3ef 11bd 8eb3 b1bd
00000080: 08e6 42bc 67f9 48bd 403d 7a3d 31ed 7ebc
00000090: ccd5 66bc 1972 57bc 48f3 99bd 1b0a 88bc
000000a0: 97c9 87bc 32c0 dbbc bd91 a73b cd2e 4ebc
000000b0: 34b9 a1bd b53e 6cbd f1f7 3dba 4059 3fbd
000000c0: 3b7e 313d 9e8b 47bd d3d1 1fbb 674f 98bd
000000d0: e051 2ebd 2a1b 7fbd a8fe 3fbd 23ad e6bc
000000e0: c088 903c 4474 a8bd 1c70 9f3c 527e 0e3c
000000f0: b572 29bd 0a34 67bc c9e8 01bb 47b4 afbd
00000100: 85b0 b33b 7144 b6bd 0bfa 17bd 1f1d 203c
00000110: 4c7e 82bc 65ff 15bd 00b3 3dbc ce44 0f3b
00000120: 51bc 28bd a37b acbd 668c 70bc 50b2 d83c
00000130: e10a a1bd e70c 12bd 68fb 9fbd 1097 13bd
00000140: 312c 64bb f09a 8ebd a61b 3c3d 952c 41bd
00000150: bcfa b3bd 8e76 48bc 913d 98bd 4811 7ebc
00000160: 3074 9c3c 1b8d 01bd edc6 c4bc fdbd 093c
00000170: dcd4 32bc ff09 fcbc b04f 13bd 7c53 92bd
00000180: 3b65 97bc 0f90 a6bd 6547 4c3b f5b1 87bc
00000190: b47d fdbc 294f 85bd 9325 89bc 5c8e 59bd
000001a0: 0fba acba 1ec9 a6bd 71d5 29bc 2346 f2bc
000001b0: 4093 20bd 2896 f03b e549 9abd d7cd a9bc
000001c0: 0de6 28bd da61 45bd a463 2fbd 02ac 60bd
000001d0: e7cd c2bb d32a 1abd cfbc 7bbd 3694 5ebd
000001e0: d55f 2dbd 9594 59bd 0987 e8bb 7527 01bd
000001f0: 85f8 43bd ce64 c6bc 85bb a4bd 24c3 433b
00000200: 7ddf a1bb 32df 85bd f83c 2f3c a0d4 fc3c
00000210: e489 a4bc e33f 3e3c e26a 5bbd 245c b9bb
00000220: 787f d9bc bb35 a0bd 732e 183c 1dcf 65bd
00000230: ebd2 05bd 56ad bbbb 4700 7cbd d050 cabc
00000240: 002d ffbb fe34 cabd 6501 d8bc 7585 84bd
00000250: d419 a4bd e890 88bd 812b e73b 2669 e1bb
00000260: fbea a33c a0ba 7cbd 5264 2b3d 0f5d 033c
00000270: 31ef 79bc 1151 56bd 21ff 1e3c 1093 e538
00000280: cc38 fd3c 312b b3bd e573 6a3d ae77 63bc
00000290: 9674 21bd 2d6e 8fbd bdc7 49bd c56a 27bd
000002a0: 275c 0bbb 0f82 3abd 0698 71bc 2fc3 c33c
000002b0: 23ea 8cba d53f 46bd 33c3 36bd 1dd9 52bc
000002c0: 196a 81bc 8fd7 03bc 1cfe 3cbc b275 9fbc
000002d0: 3f13 babc 0ee6 a9bd 77b7 c7bc 7852 3fbc
000002e0: 3de4 43bc 8f83 07bd bb72 003c 76b7 07bc
000002f0: 5a9a 85bc 3e32 bebc e935 31bc 2bff 89bd
00000300: a45a 46bd d9e0 b5bc 252e 483d 979c 803c
00000310: 4e02 10bd 09e2 5ebc d910 8bbd 3a63 3fbd
00000320: f020 c8bc 2260 6fbd e2b6 ae3d c0ba 0cbc
00000330: 7209 e8bc 7c36 7dbd fb31 17bc 7b7a a5bd
00000340: aefb 4e3b 37ff 47bd 1ca7 923d 4715 6f3c
00000350: ae24 81bc b2e2 07bd cfa3 25bd 553a a23a
00000360: 0558 34bd 8f4a 08bc dc40 a63d 7783 713c
00000370: f766 afbd 0109 53bd e14a a0bd 1321 603b
00000380: d130 03bd c354 20bd 6627 873d 3ed4 8b3c
00000390: 2e09 48bd a05d e5bb 3304 f1ba d984 71bd
000003a0: aa58 9fbc e79c 2dbd f545 acbc 136f 9dbc
000003b0: eefc a9bd d27a 60bd 58e8 86bd 0207 3ebd
000003c0: 473a 28bd 3d80 51bd 2156 463d 38e7 f3bc
000003d0: 133d b2bd 9f75 8abc 8793 74bd cf25 f3bb
000003e0: cece 5ebd 5ea3 7fbd e2a9 5fbd a112 91bc
000003f0: 2f04 6f3b 2683 a4bb a879 9fbd b81a 8dbd

hidden1.bias f4 [180]
-0.05285725 -0.033348896 -0.10077606 0.06271074 -0.19612569 -3.839648 -0.0054993527 -0.07426545
-0.07920008 -0.041741755 -0.019014174 -0.18286712 -0.5048135 0.0026474348 -0.0035606895 -0.022835316
-0.003562853 -0.09078559 0.011372144 -1.5394156 -0.0055256914 0.0021124317 0.00068875775 -0.09369685
-0.016800674 -0.24845286 -0.054572266 -0.06889022 -2.579547 0.0012611746 -0.078025274 -0.92500716
-2.889952 -0.046335112 -0.051564828 -0.03410029 -0.086613506 -0.09700282 -0.06111835 -0.026556788
0.8479252 -0.037313092 -0.051042773 -0.0701778 -0.035771675 -0.009567986 0.0021527077 -0.34600517
-1.8753134 -0.047830265 -1.7295723 -0.04630468 -0.45909035 -0.00811802 -0.090450674 -0.03357591
-0.0038597346 -0.005237862 -0.0877501 -0.3487208 -0.036492273 -0.035384845 -0.0016365289 -0.13484563
-0.46626005 -0.058564417 -1.7204868 0.048967272 -0.03301375 -0.021301053 0.32155824 -0.08652967
-4.724278e-05 0.016194422 -0.27585694 -0.17950226 -0.06395842 -0.047063857 -0.059404183 -0.094851024
0.0018078383 -0.5699542 -0.03848393 -0.038976613 0.0064325486 -0.09331862 -0.04727748 -0.05002033
-0.043661118 -0.021504033 -0.22815602 -0.015526048 -0.01001242 -0.008656657 -0.08784534 -0.01175596
-0.0018531957 -0.07899052 0.04454435 -0.009618857 -0.0059625893 -0.014742667 -0.3879806 0.05667708
-0.034794018 -0.07828786 -0.38491738 -0.017211817 -0.025596574 -0.016732715 -0.40527302 -0.06315447
-2.0775812 -0.011019752 -0.3032125 -0.08672152 -0.027245464 -0.004227641 -0.07372051 -0.08383666
-0.08430691 0.004577713 -0.060149554 -0.0028508157 0.022741066 -0.6305651 -0.08274065 -0.005868189
-0.049926735 -0.05570496 -0.013913045 -0.29802626 -0.07417993 0.009235909 -0.06258785 -0.07919959
0.0034195927 -0.025535142 -0.048560593 0.0032280725 -0.043859523 -0.047270667 -1.5867988 -0.07513949
-1.3569854 1.0874842 -0.008097377 -1.4973363 -0.059710637 -0.059874468 -0.09754612 -0.027617335
-0.018757213 -0.094734706 0.021100175 0.018396664 -0.008788859 0.01703738 -0.06439763 -0.010546451
-1.0756496 -0.05253428 0.15791841 -0.25323495 -0.024762856 -0.06598656 -0.09081291 -0.025835844
0.045028165 -0.026532443 -0.026770074 -0.091747634 1.4631937 -0.047704462 -0.2623145 -0.079101324
-0.052847784 -0.031057619 -0.0037913485 -0.03542699
00000000: d880 58bd da98 08bd ae63 cebd 7d6e 803d
00000010: 2cd5 48be cbbc 75c0 ea33 b4bb 7c18 98bd
00000020: a733 a2bd 67f9 2abd 9dc3 9bbc 8541 3bbe
00000030: 753b 01bf 9680 2d3b 755a 69bb 2111 bbbc
00000040: c17e 69bb cced b9bd 3b52 3a3c 920b c5bf
00000050: dc10 b5bb b970 0a3b c08d 343a 22e4 bfbd
00000060: 91a1 89bc 6d6a 7ebe 2b87 5fbd 5116 8dbd
00000070: 4c17 25c0 ff4d a53a b7cb 9fbd 45cd 6cbf
00000080: f9f4 38c0 e3c9 3dbd a435 53bd bfac 0bbd
00000090: 6c62 b1bd 6aa9 c6bd 3c57 7abd 9f8d d9bc
000000a0: a011 593f 9dd5 18bd 3a12 51bd 61b9 8fbd
000000b0: 5285 12bd 0bc3 1cbc 7114 0d3b 9727 b1be
000000c0: 450a f0bf abe9 43bd a062 ddbf faa9 3dbd
000000d0: e40d ebbe 7201 05bc 343e b9bd e586 09bd
000000e0: 9af3 7cbb 5fa2 abbb 53b6 b3bd 888b b2be
000000f0: ec78 15bd b3ef 10bd cc80 d6ba f914 0abe
00000100: a3b9 eebe 3ee1 6fbd e938 dcbf e891 483d
00000110: 6d39 07bd 8c7f aebc 48a3 a43e 7836 b1bd
00000120: 8c26 46b8 2aaa 843c 1f3d 8dbe 71cf 37be
00000130: a2fc 82bd 08c6 40bd cd51 73bd 4141 c2bd
00000140: fdf4 ec3a 85e8 11bf 53a1 1dbd f1a5 1fbd
00000150: 21c8 d23b d51d bfbd 08a6 41bd 1ee2 4cbd
00000160: 00d6 32bd 3a29 b0bc bba1 69be f760 7ebc
00000170: 220b 24bc a7d4 0dbc 42e8 b3bd 129c 40bc
00000180: eee6 f2ba c8c5 a1bd 2374 363d 6998 1dbc
00000190: d361 c3bb 3a8b 71bc 65a5 c6be 3a26 683d
000001a0: 2c84 0ebd 6355 a0bd e413 c5be ccff 8cbc
000001b0: e8af d1bc 0c13 89bc f27f cfbe 2157 81bd
000001c0: 17f7 04c0 318c 34bc ab3e 9bbe 0d9b b1bd
000001d0: e131 dfbc 0688 8abb c7fa 96bd 8eb2 abbd
000001e0: 1aa9 acbd a400 963b 615f 76bd c0d4 3abb
000001f0: 794b ba3c b76c 21bf ee73 a9bd f049 c0bb
00000200: fa7f 4cbd e22a 64bd 8af3 63bc e696 98be
00000210: a6eb 97bd 3652 173c 0f2e 80bd 6533 a2bd
00000220: 3f1b 603b 132f d1bc 79e7 46bd 128e 533b
00000230: 0ba6 33bd e39e 41bd 391c cbbf bce2 99bd
00000240: b3b1 adbf af32 8b3f dcaa 04bc b7a8 bfbf
00000250: 2493 74bd ee3e 75bd 43c6 c7bd c03d e2bc
00000260: baa8 99bc 4504 c2bd 46da ac3c 9ab4 963c
00000270: 25ff 0fbc fa91 8b3c e8e2 83bd 06cb 2cbc
00000280: e3ae 89bf 2f2e 57bd 5db5 213e 03a8 81be
00000290: 79db cabc f623 87bd 1efc b9bd b1a5 d3bc
000002a0: 746f 383d 915a d9bc ea4c dbbc 2fe6 bbbd
000002b0: ee49 bb3f c165 43bd 164e 86be e0ff a1bd
000002c0: eb76 58bd 8c6c febc 4678 78bb e41b 11bd

hidden2.weight f4 [90, 180]
-0.0014376247 0.009497974 0.0103013795 -0.021845536 0.00912064 -0.08552642 -0.010497897 0.055810638
0.012579705 -0.107373536 -0.077169515 -0.044597954 -0.05560353 0.08037164 0.011236292 0.038146086
0.101555556 0.058909554 -0.08757241 -0.11535061 -0.0750581 -0.041637033 -0.103478126 -0.032618906
0.08774308 -0.007672624 -0.11510863 0.0069230963 -0.10258232 -0.030472899 -0.07437419 -0.07894584
-0.06358417 -0.020069463 0.086549655 -0.054000087 -0.038939916 -0.022636812 0.00074806425 -0.11662533
-0.03523845 -0.027377287 -0.0126293795 0.106157705 -0.027644701 -0.109719805 0.048168182 -0.028394023
0.016883057 0.02995659 -0.018115083 0.09364132 0.01324642 0.102755226 -0.0750536 0.04358898
0.020380896 -0.04176383 0.022859557 -0.04099024 0.052331742 0.11576861 0.041412823 0.014530045
-0.085855246 -0.0678136 -0.0023341733 0.03419515 0.024222577 -0.06750041 -0.047245316 -0.038830847
-0.06739949 -0.09819938 -0.039204825 -0.03813791 0.053375956 0.07997855 0.05721547 0.013363699
0.017352736 -0.042713568 0.015454107 -0.022184506 0.058140792 -0.11025062 -0.096212886 -0.01748845
0.06896955 -0.004914549 -0.08862633 0.02405189 0.034922056 0.014318599 -0.077003606 -0.011050328
-0.10445732 -0.011516351 -0.024721965 0.040062055 0.0629474 0.009635892 -0.10561226 -0.057712138
-0.041380156 -0.106335625 -0.07046397 -0.03165466 0.07304997 -0.0814315 0.00081937533 0.0720809
0.017034752 0.021405958 -0.0925699 -0.007186941 -0.035180286 -0.015600855 -0.07857045 -0.040047795
-0.03245604 -0.0210517 0.09060044 -0.00949592 0.013006278 -0.068268396 0.09518871 0.0065873996
-0.027592305 -0.007038611 0.017104158 -0.055477753 0.024428708 -0.020259961 0.04725128 -0.11714509
0.01198257 0.037797093 0.024703203 -0.10464773 0.0023985195 0.013076071 -0.0688968 -0.027970381
-0.101420514 -0.05457379 0.029333856 -0.018140614 -0.016763661 -0.0825175 0.019359592 -0.010514585
0.07860843 -0.073183194 -0.095156886 -0.10691203 0.08450709 -0.075441435 -0.0067343693 0.023053598
0.013774714 -0.009839606 0.03405366 -0.016965138 -0.01633609 0.021750433 0.04653317 0.017613105
-0.045816135 -0.014789587 0.018488616 -0.0013807325 -0.07914439 0.09377488 0.024365576 -0.009271374
-0.060242943 -0.11023868 0.11253425 0.07621675 0.02478485 -0.045289498 -0.03858399 -0.104670204
-0.40004835 -0.34963548 -0.05360064 -0.02044311 -0.034337472 -0.05292834 -0.07430583 0.012218146
-0.13818939 0.0030782055 -0.030456299 -0.06414301 -0.06123447 -0.050238457 -0.11021115 -0.58630884
-0.10979807 -0.109706156 -0.08481788 -0.10434831 -0.08894449 -0.22056517 -0.034050696 -0.078980565
-0.30057645 0.028864862 -0.002466667 -0.27958375 -0.20646562 -0.008896536 -0.11767494 0.032791242
0.02219578 -0.058368776 0.016604774 -0.03710109 -0.033834174 -0.10906175 -0.032378037 -0.052978277
0.018033637 -0.055670917 0.024098134 -0.055384114 -0.5744644 -0.012847249 -0.5605332 -0.06391069
-0.1399464 -0.077035695 -0.08039616 -0.11847556 -0.059179105 -0.10093008 -0.034887698 -0.28733212
0.02708515 -0.07755599 0.00028808584 -0.1296166 -0.24605617 0.048671566 -0.614254 0.0007651434
-0.03623708 0.002262339 0.007201692 0.02888076 -0.0137703875 -0.036883052 -0.13421686 -0.09237877
00000000: ae6e bcba 649d 1b3c 1ec7 283c 69f5 b2bc
00000010: bd6e 153c 7a28 afbd 5fff 2bbc b299 643d
00000020: 1b1b 4e3c a8e6 dbbd 0d0b 9ebd 58ac 36bd
00000030: 87c0 63bd e399 a43d 6d18 383c 123f 1c3d
00000040: 5cfc cf3d 254b 713d 2a59 b3bd f13c ecbd
00000050: 10b8 99bd 988b 2abd 57ec d3bd 679b 05bd
00000060: a5b2 b33d a36a fbbb 13be ebbd 24db e23b
00000070: ae16 d2bd 4da2 f9bc 7f51 98bd 5bae a1bd
00000080: 6b38 82bd b768 a4bc f240 b13d 322f 5dbd
00000090: 767f 1fbd d670 b9bc be19 443a 43d9 eebd
000000a0: 3156 10bd 5546 e0bc 75eb 4ebc 3669 d93d
000000b0: 2477 e2bc c7b4 e0bd 004c 453d 959a e8bc
000000c0: 564e 8a3c 8667 f53c 1566 94bc 05c7 bf3d
000000d0: 8307 593c 5571 d23d b4b5 99bd 5c8a 323d
000000e0: d6f5 a63c 8d10 2bbd f743 bb3c 62e5 27bd
000000f0: cf59 563d 1818 ed3d 7ea0 293d 6d0f 6e3c
00000100: e0d4 afbd dbe1 8abd eef8 18bb 3710 0c3d
00000110: 6d6e c63c a83d 8abd 4e84 41bd 180d 1fbd
00000120: be08 8abd c21c c9bd 3d95 20bd 7f36 1cbd
00000130: bfa0 5a3d cbcb a33d c55a 6a3d 6bf3 5a3c
00000140: 5327 8e3c 6cf4 2ebd 3933 7d3c 48bc b5bc
00000150: 0a25 6e3d 14cb e1bd 430b c5bd f043 8fbc
00000160: e83f 8d3d 3a0a a1bb b981 b5bd 7808 c53c
00000170: 6e0a 0f3d 8f98 6a3c 11b4 9dbd 6f0c 35bc
00000180: b8ed d5bd 14af 3cbc b885 cabc 1c18 243d
00000190: 91ea 803d dcdf 1d3c 3e4b d8bd 9063 6cbd
000001a0: 3d7e 29bd 7ec6 d9bd 6a4f 90bd 51a8 01bd
000001b0: 399b 953d 8fc5 a6bd 59cb 563a 279f 933d
000001c0: 778c 8b3c 8c5b af3c 4a95 bdbd 6e80 ebbb
000001d0: 3419 10bd bb9a 7fbc 8be9 a0bd 2809 24bd
000001e0: a0f0 04bd 9d74 acbc b98c b93d c694 1bbc
000001f0: 4918 553c 4dd0 8bbd 4cf2 c23d 1ddb d73b
00000200: 4209 e2bc 26a4 e6bb 051e 8c3c a43c 63bd
00000210: b71e c83c 38f8 a5bc 8f8a 413d c4e9 efbd
00000220: 8b52 443c 20d1 1a3d 5f5e ca3c 8d51 d6bd
00000230: 7b30 1d3b 043d 563c c419 8dbd 2422 e5bc
00000240: 8fb5 cfbd c488 5fbd 8e4d f03c a09b 94bc
00000250: f253 89bc effe a8bd 0298 9e3c 5e45 2cbc
00000260: 75fd a03d 12e1 95bd 9de1 c2bd b2f4 dabd
00000270: 0e12 ad3d 0a81 9abd fcab dcbb e6da bc3c
00000280: 57af 613c 4c36 21bc da7b 0b3d 79fa 8abc
00000290: 44d3 85bc f72d b23c 9199 3e3d 5c49 903c
000002a0: b3a9 3bbd 0650 72bc 7075 973c b2f9 b4ba
000002b0: 7416 a2bd 0b0d c03d 519a c73c f6e6 17bc
000002c0: 4ec1 76bd d1c4 e1bd 5b78 e63d 8717 9c3d
000002d0: 9909 cb3c 7b81 39bd 3f0a 1ebd 555d d6bd
000002e0: 23d3 ccbe 6c03 b3be 588c 5bbd 4f78 a7bc
000002f0: 73a5 0cbd 63cb 58bd a82d 98bd 9e2e 483c
00000300: 8581 0dbe b8bb 493b 7d7f f9bc 695d 83bd
00000310: ffd0 7abd d7c6 4dbd 62b6 e1bd 5618 16bf
00000320: cfdd e0bd 9fad e0bd ffb4 adbd 91b4 d5bd
00000330: 8728 b6bd d6db 61be be78 0bbd 90c0 a1bd
00000340: 28e5 99be 0176 ec3c cea7 21bb 9a25 8fbe
00000350: b96b 53be c7c2 11bc 8fff f0bd 1c50 063d
00000360: edd3 b53c 1914 6fbd bc06 883c 50f7 17bd
00000370: b495 0abd c45b dfbd d59e 04bd c0ff 58bd
00000380: 47bb 933c 3007 64bd 7369 c53c 74da 62bd
00000390: 1910 13bf 457d 52bc 1b7f 0fbf 9ce3 82bd
000003a0: 1c4e 0fbe e4c4 9dbd bea6 a4bd 50a3 f2bd
000003b0: ca65 72bd 6eb4 cebd 67e6 0ebd 321d 93be
000003c0: ade1 dd3c add5 9ebd 3a0a 9739 37ba 04be
000003d0: 26f6 7bbe d65b 473d c03f 1dbf e893 483a
000003e0: 556d 14bd c043 143b 2cfc eb3b 5897 ec3c
000003f0: 319d 61bc af12 17bd 2570 09be 1531 bdbd

hidden2.bias f4 [90]
-0.17627244 -0.19651188 -0.10956832 -0.17770445 -0.04717035 -0.19925968 -0.27664432 -0.07219736
-0.0032587245 -0.06139282 -0.10257883 -0.031266768 -0.0049310736 -0.11342587 -0.12635806 -0.0069551957
-0.07236831 -0.08467064 -0.106726505 -0.18777831 -0.036090627 -0.16539632 -0.1902917 -0.077270694
-0.00024195258 -0.098299764 2.4148881 -0.08502056 -0.045935746 -0.039626528 -0.0948676 -0.08858427
-0.115036346 -0.08996907 -0.12716779 -0.1319086 -0.36026922 -0.047959674 -0.34730032 -0.029982364
-0.12244681 -0.020661434 -0.10442346 -0.114929885 -0.014948079 -0.25326782 -0.32452542 -0.048422374
-0.011027582 -0.022052087 -0.15265548 -0.00048063975 -0.0003893595 -0.08214379 -0.11618508 -0.06372498
0.4691552 -0.16598964 -0.08469739 -0.100071356 -0.098302186 -0.05901509 -0.12860568 -0.050603423
-0.13396296 -0.023506884 0.05887643 0.1334144 -0.04412065 -0.14783244 -0.090552 -0.09174607
-0.04229174 -0.1357762 -0.02136422 -0.011126105 -0.21113183 -0.020387514 -0.37171617 -0.021958036
-0.06678237 -0.24519366 -0.45201188 -1.4053904 -1.8367852 -0.017246569 -0.31629086 -1.1094697
-0.09893605 -0.15524593
00000000: c380 34be 693a 49be 5b65 e0bd 28f8 35be
00000010: b235 41bd bb0a 4cbe 53a4 8dbe 36dc 93bd
00000020: 5390 55bb 0a77 7bbd da14 d2bd 9511 00bd
00000030: d894 a1bb d34b e8bd 0264 01be 69e8 e3bb
00000040: d635 94bd cd67 adbd 6d93 dabd f548 40be
00000050: c4d3 13bd a75d 29be d4db 42be 1940 9ebd
00000060: a7b4 7db9 6351 c9bd 878d 1a40 421f aebd
00000070: 1f27 3cbd 6d4f 22bd f249 c2bd ab6b b5bd
00000080: 2d98 ebbd b441 b8bd 4638 02be 0c13 07be
00000090: 3575 b8be 5d71 44bd 59d1 b1be 939d f5bc
000000a0: 65c5 fabd 2b42 a9bc f8db d5bd 5c60 ebbd
000000b0: cae8 74bc 52ac 81be 3228 a6be 8a56 46bd
000000c0: 08ad 34bc 94a6 b4bc b851 1cbe 60fe fbb9
000000d0: f322 ccb9 013b a8bd 71f2 edbd 3e82 82bd
000000e0: 1c35 f03e 30f9 29be d375 adbd 36f2 ccbd
000000f0: a852 c9bd cfb9 71bd 35b1 03be 8945 4fbd
00000100: 962d 09be 8291 c0bc 6928 713d c99d 083e
00000110: dbb7 34bd 6361 17be 5473 b9bd 5de5 bbbd
00000120: 1b3a 2dbd eb08 0bbe 0404 afbc 444a 36bc
00000130: f132 58be b703 a7bc 9551 bebe 57e1 b3bc
00000140: 32c5 88bd 0c14 7bbe 1a6e e7be d5e3 b3bf
00000150: c71b ebbf ad48 8dbc e0f0 a1be 1a03 8ebf
00000160: fc9e cabd caf8 1ebe

hidden3.weight f4 [90, 90]
0.059193317 0.19127713 -0.02242976 0.092669964 -0.026474789 0.07025951 -0.07387607 -0.0022023686
0.04592355 0.01901189 -0.028052147 0.02769825 0.044107582 -0.020592002 -0.03998713 0.08825723
0.05446506 0.09028272 0.09612604 0.15437424 0.04718907 0.49481007 0.046678994 0.1285665
-0.02613223 0.101919815 -0.15046647 -0.017793937 0.093448244 0.020675922 0.06427228 -0.05681588
0.014582592 -0.012018454 -0.15857634 0.008265248 0.108553335 0.007045592 0.052671053 0.075355396
0.036340605 -0.0006538641 0.12811653 0.025776362 0.07050367 0.1026772 -0.10481849 0.010190336
-0.055400815 0.1148508 0.12886827 0.029930536 0.11126762 0.09313692 0.079459004 -0.010557603
0.049065586 0.031253275 -0.078604184 0.006593198 -0.013956532 -0.0059557646 -0.055883642 -0.010953749
0.06695345 0.09228826 -0.21060967 -0.11402711 0.01398087 0.10952999 -0.053442225 0.08478485
-0.08545378 -0.10971118 0.07797512 -0.02623039 0.04962805 -0.023465548 -0.026442956 0.10482702
-0.016161848 -0.022335343 0.004911951 0.0015582172 -0.017905785 0.03683178 -0.20754391 -0.12514356
-0.014694522 0.036860693 0.05140669 0.010796681 0.04571835 -0.094666965 -0.13702843 -0.067431875
-0.054711305 -0.08032507 -0.09549118 -0.12593909 -0.052057482 -0.020339925 -0.12181416 0.021880373
-0.039621636 -0.09652771 -0.031538676 0.021333216 -0.034829576 0.00300047 -0.047420654 -0.07412923
0.044880293 0.02858388 0.0074493433 -0.10417394 -0.008169907 0.01933936 -0.07296494 -0.09998836
0.07864073 0.08226767 -0.04544549 0.106397174 0.04246626 -0.07009737 -0.13353086 -0.11282539
-0.08606361 0.011337857 -0.14549263 -0.019958785 0.000507909 -0.10891039 0.051705226 -0.098344974
-0.073730685 0.1297825 -0.06518784 -0.031060675 -0.003406997 -0.1299865 0.011872482 -0.081183895
-0.13073888 -0.120238274 0.02490804 -0.14207686 -0.006011049 -0.067951515 -0.12582862 0.024444409
0.04565245 -0.0758613 0.06713761 -0.13715722 -0.12773763 0.021261664 -0.08355291 -0.097249165
-0.046028882 0.011159784 -0.08461841 -0.14650063 -0.07221832 -0.023138942 -0.07492407 0.004055365
-0.08351975 -0.07986697 0.016151492 0.009998247 -0.030179195 -0.26968262 -0.30575252 0.022567177
-0.14448507 -0.103100605 0.023356762 -0.03449568 0.05706848 0.006425419 0.09415561 0.2375781
-0.31041622 -0.005275224 -0.29669085 0.061412815 0.09010317 -0.048634615 -0.007979496 -0.02668739
0.07071196 0.049435247 0.0012388794 0.07617246 -0.009214331 -0.032037828 0.08949791 0.011495733
-0.07003913 0.4095543 0.0073046926 -0.094216056 0.14695317 -0.006241171 0.6502441 0.029636377
0.06519789 -0.016187556 -0.10534275 -0.020772254 -0.014401019 -0.040432144 -0.044084743 0.044023592
-0.08695688 0.070861705 0.09285986 -0.06202649 0.10826646 -0.025041914 -0.0029176166 0.13144328
0.05003042 -0.21383215 0.12906554 0.059241995 0.13005504 0.0020600946 -0.01600388 -0.04480788
-0.0338988 -0.015405782 0.08319934 0.10719309 0.39042443 0.013347952 0.15007165 -0.046864893
-0.036999006 -0.030815378 0.029883755 0.0876683 0.06996813 0.10011446 0.3741843 -0.072052516
0.0559536 0.049509924 0.121091746 -0.049692973 -0.021440841 0.19554831 0.12236841 -0.028621452
00000000: b174 723d 27de 433e 9ebe b7bc c0c9 bd3d
00000010: a8e1 d8bc 38e4 8f3d 564c 97bd 9d55 10bb
00000020: 551a 3c3d d3be 9b3c 9ecd e5bc 71e7 e23c
00000030: 27aa 343d 8fb0 a8bc 8bc9 23bd 35c0 b43d
00000040: c116 5f3d 26e6 b83d bbdd c43d 4814 1e3e
00000050: 5449 413d bf57 fd3e 7932 3f3d f0a6 033e
00000060: 4213 d6bc 56bb d03d e213 1abe 97c4 91bc
00000070: cb61 bf3d 8d60 a93c 2fa1 833d c5b7 68bd
00000080: d3eb 6e3c 0de9 44bc d661 22be f66a 073c
00000090: 3651 de3d b6de e63b 9abd 573d ee53 9a3d
000000a0: e3d9 143d 1468 2bba fb30 033e f328 d33c
000000b0: 3a64 903d 6d48 d23d 14ab d6bd 5ef5 263c
000000c0: f7eb 62bd e536 eb3d 0bf6 033e e230 f53c
000000d0: 47e0 e33d 92be be3d 67bb a23d ccf9 2cbc
000000e0: fff8 483d 6f03 003d 3bfb a0bd c10b d83b
000000f0: f0a9 64bc 9328 c3bb 3fe6 64bd 5a77 33bc
00000100: e41e 893d a101 bd3d 10aa 57be 0c87 e9bd
00000110: 0510 653c 4251 e03d 3ce6 5abd aea3 ad3d
00000120: 6402 afbd 41b0 e0bd 6bb1 9f3d 1de1 d6bc
00000130: c846 4b3d d23a c0bc e69e d8bc 8caf d63d
00000140: da65 84bc 9cf8 b6bc 6ef4 a03b 183d cc3a
00000150: 27af 92bc ecdc 163d 6486 54be a225 00be
00000160: 4bc1 70bc 3dfb 163d d28f 523d 90e4 303c
00000170: 2a43 3b3d c1e0 c1bd 2e51 0cbe b919 8abd
00000180: f618 60bd 7881 a4bd e190 c3bd 2df6 00be
00000190: 3a3a 55bd ea9f a6bc b479 f9bd 783e b33c
000001a0: 4c4a 22bd 52b0 c5bd b32e 01bd ffc2 ae3c
000001b0: 75a9 0ebd 89a3 443b 293c 42bd 11d1 97bd
000001c0: 66d4 373d be28 ea3c 9f19 f43b 2659 d5bd
000001d0: 13db 05bc 946d 9e3c a46e 95bd b3c6 ccbd
000001e0: 640e a13d f47b a83d 0d25 3abd c3e6 d93d
000001f0: 1af1 2d3d 368f 8fbd 50bc 08be 0011 e7bd
00000200: 1e42 b0bd 6bc2 393c 05fc 14be 9b80 a3bc
00000210: 3225 053a 690c dfbd dcc8 533d 1769 c9bd
00000220: 1d00 97bd b4e5 043e 3481 85bd f572 febc
00000230: ed47 5fbb 2e1b 05be cc84 423c be43 a6bd
00000240: 6ae0 05be 7c3f f6bd f20b cc3c 997c 11be
00000250: 55f8 c4bb 2a2a 8bbd 38d9 00be a43f c83c
00000260: 10fe 3a3d 2b5d 9bbd 717f 893d f172 0cbe
00000270: a7cd 02be f12c ae3c ca1d abbd 922a c7bd
00000280: c888 3cbd 87d7 363c 6b4c adbd 4304 16be
00000290: 33e7 93bd e18d bdbc ca71 99bd dee2 843b
000002a0: 670c abbd 4b91 a3bd 2250 843c b0cf 233c
000002b0: 5c3a f7bc d713 8abe 988b 9cbe cdde b83c
000002c0: e5f3 13be 6926 d3bd ae56 bf3c 584b 0dbd
000002d0: a3c0 693d 528c d23b a8d4 c03d ac47 733e
000002e0: e0ee 9ebe c9db acbb dde7 97be 018c 7b3d
000002f0: 0388 b83d 1735 47bd 6fbc 02bc 839f dabc
00000300: 6fd1 903d 9d7c 4a3d e561 a23a 4f00 9c3d
00000310: b5f7 16bc 193a 03bd ae4a b73d 9958 3c3c
00000320: ad70 8fbd 1ab1 d13e 345c ef3b 59f4 c0bd
00000330: e47a 163e bd82 ccbb 6676 263f fdc7 f23c
00000340: 7986 853d c49b 84bc f1bd d7bd 932a aabc
00000350: 40f2 6bbc 2d9c 25bd 3492 34bd 1552 343d
00000360: 7316 b2bd f11f 913d 4f2d be3d 7d0f 7ebd
00000370: ceba dd3d b324 cdbc 7c35 3fbb 1199 063e
00000380: b3ec 4c3d d1f6 5abe c229 043e bca7 723d
00000390: 262d 053e a702 073b 921a 83bc 7888 37bd
000003a0: 78d9 0abd 8868 7cbc 6a64 aa3d 0d88 db3d
000003b0: b6e5 c73e 5eb1 5a3c 62ac 193e 67f5 3fbd
000003c0: 458c 17bd 8870 fcbc c7ce f43c 708b b33d
000003d0: 734b 8f3d cf08 cd3d 1695 bf3e 4590 93bd
000003e0: 9a2f 653d ebca 4a3d f3fe f73d dc8a 4bbd
000003f0: b4a4 afbc d13d 483e 4a9c fa3d 8977 eabc

hidden3.bias f4 [90]
-0.080697075 -0.03824511 0.4353938 0.22239134 -0.09515716 0.1309098 -0.099688396 0.2654587
0.5879807 -0.077736564 -0.14292991 -0.052242123 -0.06104022 -0.022003211 -0.20536576 0.38293678
-0.11010066 -0.0037007898 -0.23008148 -0.5085973 0.1710577 -0.7370997 -0.23121285 -0.021367982
-0.07260169 -0.062664986 -0.37893325 -0.07779413 -0.16956566 -0.095010735 -0.00397047 0.0066174045
-0.19933623 -0.119728334 -0.11422923 -0.19796301 -0.099694036 -0.20173761 -0.033776805 0.01600403
-0.044774435 -0.10389124 -0.15485913 0.03447779 -0.36466905 -0.13968131 -0.10718074 -0.14602351
0.011639671 -0.06160366 0.18015647 -0.25597638 -0.18241866 -0.1992997 -0.15183519 0.7112407
-0.088749155 1.2365717 -0.31471604 -0.1601562 -0.0697286 -0.1551556 -0.14632505 0.078506134
0.18947579 0.04552742 -0.08575533 -0.122192875 -0.26861557 -0.083963394 -0.25307435 -0.55059063
-0.02873918 -0.2846016 -0.36485332 -0.056108024 -0.098801315 -0.06406365 -0.07049934 -0.028659208
0.20409676 -0.21042646 0.68105954 0.042143732 -0.38132942 0.083891004 -0.31231672 -0.23574266
-0.283039 -0.078294925
00000000: 8244 a5bd e8a6 1cbd f0eb de3e 8eba 633e
00000010: c2e1 c2bd 380d 063e 6e29 ccbd 34ea 873e
00000020: e785 163f 5934 9fbd 385c 12be d6fb 55bd
00000030: 4f05 7abd 1440 b4bc 674b 52be 4a10 c43e
00000040: 747c e1bd f388 72bb 7b9a 6bbe 6f33 02bf
00000050: c029 2f3e 91b2 3cbf 10c3 6cbe e80b afbc
00000060: 32b0 94bd 8056 80bd 8a03 c2be 8752 9fbd
00000070: 9fa2 2dbe fd94 c2bd b71a 82bb d0d6 d83b
00000080: cc1e 4cbe 2134 f5bd 04f1 e9bd d1b6 4abe
00000090: 632c ccbd 4e94 4ebe 8c59 0abd e21a 833c
000000a0: 6665 37bd eec4 d4bd 6493 1ebe 9538 0d3d
000000b0: e7b5 babe 9e08 0fbe 9381 dbbd 3087 15be
000000c0: 52b4 3e3c 1f54 7cbd f07a 383e 560f 83be
000000d0: f5cb 3abe 3815 4cbe af7a 1bbe df13 363f
000000e0: 1ec2 b5bd fb47 9e3f 7622 a1be fdff 23be
000000f0: decd 8ebd 1ce1 1ebe 3cd6 15be d3c7 a03d
00000100: f105 423e f67a 3a3d 7ea0 afbd 4240 fabd
00000110: fb87 89be 00f5 abbd f692 81be 82f3 0cbf
00000120: 6e6e ebbc 4db7 91be 0ece babe 87d1 65bd
00000130: 5858 cabd ce33 83bd f561 90bd b7c6 eabc
00000140: befe 503e 097a 57be eb59 2e3f e89e 2c3d
00000150: 9c3d c3be 0ccf ab3d fae7 9fbe 8666 71be
00000160: 7dea 90be 1759 a0bd

hidden4.weight f4 [10, 90]
-0.24637876 0.009464033 0.09176346 -0.05937442 0.07789152 -0.037175007 -0.07339622 -0.032587044
-0.19258623 -0.08878988 0.10459366 0.07623758 -0.091907695 -0.054744832 -0.020261064 0.03562426
-0.020409122 0.008220173 -0.028209962 -0.019664638 -0.09326099 -0.17652358 -0.09896938 -0.01680991
0.017537318 -0.08973217 0.04972125 -0.105884716 -0.04220043 0.029933222 0.006225556 -0.10233931
-0.2645774 -0.088129595 0.037292816 0.047677986 -0.09111011 -0.0499664 0.049139775 0.001865536
0.0115339905 -0.29853266 -0.020398043 -0.069523394 -0.07255526 0.08585317 0.101194896 -0.06613207
-0.044309594 -0.047491193 -0.07930935 -0.057732843 -0.0071919784 0.099826716 0.1040296 -0.007847153
-0.026140958 -0.104866154 0.074648134 -0.003101118 0.062150992 -0.0016937107 0.08208234 0.029286928
-0.019208476 -0.040294886 0.09124934 0.06759473 -0.009397805 0.09411476 0.057771347 0.09848807
-0.24291536 -0.01099547 -0.02088333 0.10537087 -0.09538554 -0.004893109 -0.02366741 0.006126888
-0.063820556 0.105043225 -0.09715311 -0.24896127 -0.06394358 -0.08217403 0.006262943 -0.035692006
0.09672194 -0.029891878 -0.05607336 0.041782506 -0.25971785 -0.22959286 -0.031016864 -0.26176152
0.093278445 -0.22302312 -0.2669916 -0.056085587 -0.08269061 0.002475351 0.0022195503 -0.08708832
0.018162228 -0.16288343 0.07122838 -0.030209675 -0.065135285 0.10435281 0.05739141 -0.05191352
-0.052557975 -0.047631692 -0.21344255 0.06850458 0.07193226 -0.010587081 0.04769782 -0.0056228116
0.018669218 -0.10222049 -0.002522014 0.06245499 -0.022851907 -0.064714 0.03005021 -0.07684594
-0.059015267 -0.22728741 0.05095812 -0.045531824 0.27138186 0.10181929 0.16418244 -0.030167088
-0.048219856 0.024567999 0.041075446 -0.05869502 -0.09325599 -0.008868992 0.042643465 0.0099436045
0.10396486 -0.21751125 0.004428968 -0.16880065 0.078612335 -0.012487441 0.013444319 -0.08220259
0.0099173635 -0.15768781 -0.072570056 -0.074990295 -0.021405064 -0.06070927 0.021196015 0.061171927
0.10453261 0.009832054 -0.054958623 0.0010016784 0.0682038 -0.09327081 0.052170254 -0.008205533
-0.11224392 0.073632725 -0.03235194 -0.012359723 -0.28586376 -0.07041194 -0.10135971 -0.06939256
0.07682995 0.082354255 0.015899412 -0.015506014 -0.008063063 -0.025532646 -0.14846374 0.041870683
0.079920724 0.015175815 0.04808051 -0.3100413 -0.0039355615 -0.08894262 0.03918578 -0.014092441
0.03504373 -0.0035780917 -0.07089602 0.065211914 -0.043765858 0.08248825 0.00081281364 -0.102239154
-0.03679027 -0.1348181 -0.06821142 -0.13453929 0.011538126 0.1125508 0.09849564 0.09652502
-0.07812617 0.13969126 0.0825286 0.055963818 -0.11449566 -0.053227 -0.0023832365 -0.07349624
0.019188287 -0.062174432 -0.07240781 -0.06100524 0.12913488 -0.028504206 0.0012023165 0.068120286
0.027669173 -0.057545986 0.069660194 0.05712154 -0.12603892 0.029047184 0.21894625 0.04055602
0.044964224 0.024461726 -0.12327776 -0.21159889 0.014306353 -0.1731374 -0.0037756115 0.061928235
-0.041890554 -0.03128101 -0.026881598 -0.09042775 0.40769663 0.1074804 0.061922826 -0.027092384
-0.019680617 -0.0029085614 0.0571715 -0.0138126165 -0.023083106 -0.09861443 0.09726595 0.07019099
00000000: b74a 7cbe 080f 1b3c 7bee bb3d 9832 73bd
00000010: 9785 9f3d d244 18bd c250 96bd fe79 05bd
00000020: 5335 45be 78d7 b5bd 3335 d63d 7322 9c3d
00000030: 1a3a bcbd 1e3c 60bd 88fa a5bc beea 113d
00000040: 0831 a7bc e8ad 063c 9418 e7bc bc17 a1bc
00000050: 9eff bebd 99c2 34be 75b0 cabd f0b4 89bc
00000060: 6caa 8f3c 80c5 b7bd 82a8 4b3d 16da d8bd
00000070: 5cda 2cbd 8436 f53c c0ff cb3b 4697 d1bd
00000080: b076 87be 4a7d b4bd 5ac0 183d fe49 433d
00000090: f097 babd 91a9 4cbd ca46 493d 0085 f43a
000000a0: 10f9 3c3c 46d9 98be cc19 a7bc 4862 8ebd
000000b0: da97 94bd c9d3 af3d 453f cf3d 4070 87bd
000000c0: fa7d 35bd 2086 42bd f16c a2bd 4679 6cbd
000000d0: b0aa ebbb f371 cc3d 790d d53d 5891 00bc
000000e0: 9025 d6bc 11c4 d6bd 1fe1 983d 203c 4bbb
000000f0: 0a92 7e3d 80ff ddba c91a a83d 24eb ef3c
00000100: 185b 9dbc 400c 25bd efe0 ba3d 1b6f 8a3d
00000110: 40f9 19bc 3dbf c03d a6a1 6c3d 1db4 c93d
00000120: cebe 78be 5826 34bc 8413 abbc afcc d73d
00000130: 7e59 c3bd 6056 a0bb 28e2 c1bc 10c4 c83b
00000140: 5ab4 82bd e720 d73d 36f8 c6bd b4ef 7ebe
00000150: daf4 82bd dc4a a8bd 6039 cd3b c831 12bd
00000160: 2716 c63d d0df f4bc 2ead 65bd 2224 2b3d
00000170: bdf9 84be 641a 6bbe 1417 febc 9b05 86be
00000180: c508 bf3d 2c60 64be 1fb3 88be 00ba 65bd
00000190: b259 a9bd 8039 223b e075 113b 5c5b b2bd
000001a0: f4c8 943c eaca 26be 2fe0 913d 487a f7bc
000001b0: a665 85bd edb6 d53d 4113 6b3d 45a3 54bd
000001c0: 0847 57bd 7319 43bd af90 5abe 214c 8c3d
000001d0: 3951 933d 7075 2dbc ca5e 433d 903f b8bb
000001e0: 30f0 983c fa58 d1bd 6048 25bb ced0 7f3d
000001f0: ec33 bbbc c688 84bd dc2b f63c 6761 9dbd
00000200: feb9 71bd 08be 68be 76b9 503d 947f 3abd
00000210: 90f2 8a3e a286 d03d 711f 283e f820 f7bc
00000220: 2f82 45bd d442 c93c ba3e 283d 306a 70bd
00000230: fffc bebd 404f 11bc eaaa 2e3d 80ea 223c
00000240: 87eb d43d 45bb 5ebe e020 913b 14da 2cbe
00000250: 81ff a03d 2098 4cbc 9045 5c3c d559 a8bd
00000260: 707c 223c ea78 21be 9c9f 94bd 8394 99bd
00000270: ac59 afbc 49aa 78bd 44a3 ad3c 6a8f 7a3d
00000280: 3115 d63d a016 213c 4b1c 61bd c04a 833a
00000290: 6fae 8b3d c404 bfbd 7ab0 553d 8070 06bc
000002a0: 24e0 e5bd c1cc 963d 7883 04bd 7080 4abc
000002b0: bc5c 92be 2334 90bd ae95 cfbd b01d 8ebd
000002c0: 0559 9d3d 59a9 a83d 7c3f 823c f00c 7ebc
000002d0: f01a 04bc d729 d1bc e106 18be 9880 2b3d
000002e0: 7aad a33d fba3 783c 12f0 443d bcbd 9ebe
000002f0: e2f5 80bb 8c27 b6bd 4581 203d fbe3 66bc
00000300: 048a 0f3d 6b7e 6abb ef31 91bd d38d 853d
00000310: d443 33bd 9aef a83d 0013 553a c362 d1bd
00000320: 65b1 16bd c20d 0abe 6eb2 8bbd abc4 09be
00000330: 680a 3d3c 0981 e63d 15b8 c93d e9ae c53d
00000340: 9d00 a0bd 3a0b 0f3e c104 a93d 513a 653d
00000350: b37c eabd 8e04 5abd 1330 1cbb 3285 96bd
00000360: c130 9d3c 9eaa 7ebd 8c4a 94bd a1e0 79bd
00000370: ef3b 043e a781 e9bc 0c97 9d3a a682 8b3d
00000380: 76aa e23c 57b5 6bbd 01aa 8e3d 47f8 693d
00000390: 5910 01be 5cf4 ed3c 7233 603e 121e 263d
000003a0: 682c 383d f563 c83c 0d79 fcbd 61ad 58be
000003b0: 3265 6a3c ee4a 31be 4070 77bb 76a8 7d3d
000003c0: 6e95 2bbd 8420 00bd cc36 dcbc 2f32 b9bd
000003d0: 9dbd d03e af1e dc3d caa2 7d3d d9f0 ddbc
000003e0: 3f39 a1bc 909d 3ebb aa2c 6a3d 504e 62bc
000003f0: c818 bdbc 5df6 c9bd 5f33 c73d 4bc0 8f3d

hidden4.bias f4 [10]
-0.2834182 -0.25214392 -0.27488267 -0.23666707 -0.042672742 -0.18624216 -0.071652606 -0.31652832
0.44504976 -0.38112935
00000000: 311c 91be 0219 81be 6cbd 8cbe da58 72be
00000010: 9dc9 2ebd 44b6 3ebe 9abe 92bd 0010 a2be
00000020: 90dd e33e 6323 c3be

hidden5.weight f4 [6, 10]
-0.41625327 0.05604625 0.35509288 -0.16189454 0.27816767 0.05783462 -0.17835419 -0.06974578
0.24944107 0.13593799 -0.2964901 0.56853014 0.21561126 -0.05129806 0.033588707 0.078262456
-0.2509471 0.08195163 0.2514435 0.023433305 -0.08777645 0.18968068 -0.04856049 0.05843391
-0.24685422 0.06781362 0.14801373 0.015505731 0.25146857 0.057978574 0.025189428 0.5092648
-0.06239425 -0.09617219 0.09724377 -0.06281214 0.08086952 0.1427881 0.25030172 0.06492658
0.17000668 0.36903596 -0.005364019 0.01444412 0.26569188 0.0023224764 -0.22756812 -0.09302889
0.24722426 0.048928358 0.021767521 0.21396145 0.18467122 -0.20698804 -0.15625177 -0.03551211
-0.19347247 -0.19400276 0.24254693 0.09904496
00000000: 261f d5be c190 653d bcce b53e afc7 25be
00000010: fe6b 8e3e ffe3 6c3d 7ba2 36be e0d6 8ebd
00000020: 7b6d 7f3e 5433 0b3e 8dcd 97be 318b 113f
00000030: 33c9 5c3e ea1d 52bd 5094 093d 1148 a03d
00000040: 237c 80be 42d6 a73d 34bd 803e 34f7 bf3c
00000050: 24c4 b3bd a73b 423e 5de7 46bd 6558 6f3d
00000060: 5ac7 7cbe dee1 8a3d e990 173e c00b 7e3c
00000070: 7dc0 803e f17a 6d3d 0f5a ce3c 2e5f 023f
00000080: 1d91 7fbd edf5 c4bd be27 c73d a7a3 80bd
00000090: eb9e a53d 0b37 123e 8c27 803e 3af8 843d
000000a0: 3b16 2e3e 48f2 bc3e a7c4 afbb 08a7 6c3c
000000b0: c408 883e b034 183b 9e07 69be ee85 bebd
000000c0: 5b28 7d3e 1a69 483d cd51 b23c b618 5b3e
000000d0: 741a 3d3e acf4 53be 7700 20be 2575 11bd
000000e0: a61d 46be a9a8 46be 395e 783e 16d8 ca3d

hidden5.bias f4 [6]
0.24874747 0.24655342 0.24633737 0.24725303 0.25008902 0.25453824
00000000: a8b7 7e3e 8078 7c3e dd3f 7c3e e62f 7d3e
00000010: ab0b 803e d652 823e
